Model Parameters: 13960
Model Architecture:
Net(
  (conv1): Conv2d(1, 16, kernel_size=(3, 3), stride=(1, 1))
  (bn1): BatchNorm2d(16, eps=1e-05, momentum=0.1, affine=True, track_running_stats=True)
  (conv2): Conv2d(16, 32, kernel_size=(3, 3), stride=(1, 1))
  (bn2): BatchNorm2d(32, eps=1e-05, momentum=0.1, affine=True, track_running_stats=True)
  (conv3): Conv2d(32, 10, kernel_size=(1, 1), stride=(1, 1))
  (bn3): BatchNorm2d(10, eps=1e-05, momentum=0.1, affine=True, track_running_stats=True)
  (pool1): MaxPool2d(kernel_size=2, stride=2, padding=0, dilation=1, ceil_mode=False)
  (conv4): Conv2d(10, 16, kernel_size=(3, 3), stride=(1, 1))
  (bn4): BatchNorm2d(16, eps=1e-05, momentum=0.1, affine=True, track_running_stats=True)
  (conv5): Conv2d(16, 16, kernel_size=(3, 3), stride=(1, 1))
  (bn5): BatchNorm2d(16, eps=1e-05, momentum=0.1, affine=True, track_running_stats=True)
  (conv6): Conv2d(16, 16, kernel_size=(3, 3), stride=(1, 1))
  (bn6): BatchNorm2d(16, eps=1e-05, momentum=0.1, affine=True, track_running_stats=True)
  (conv7): Conv2d(16, 16, kernel_size=(3, 3), stride=(1, 1), padding=(1, 1))
  (bn7): BatchNorm2d(16, eps=1e-05, momentum=0.1, affine=True, track_running_stats=True)
  (gap): AvgPool2d(kernel_size=6, stride=6, padding=0)
  (conv8): Conv2d(16, 10, kernel_size=(1, 1), stride=(1, 1))
  (dropout): Dropout(p=0.05, inplace=False)
  (dropout1): Dropout(p=0.07, inplace=False)
  (dropout2): Dropout(p=0.07, inplace=False)
  (dropout3): Dropout(p=0.01, inplace=False)
  (dropout4): Dropout(p=0.05, inplace=False)
  (dropout5): Dropout(p=0.05, inplace=False)
  (dropout6): Dropout(p=0.05, inplace=False)
  (dropout7): Dropout(p=0.01, inplace=False)
…
